Assignment3/assn3/MNSIT_test/results/model.pth (torch_old, 88588 bytes, 8 tensors)

conv1.weight f4 [10, 1, 5, 5]
00000000: ba75 59bb dabd 1cbd 8ee6 81bd bdbe 813e
00000010: 916d 443d 21e5 523c dd07 48bd 4427 a0bc
00000020: bfae 823e 8a60 4b3e 3389 243e 28fd e5bd
00000030: 1d7b 3c3e 49c1 853e da8c 29bd fe4b debd
00000040: 21b1 173e 6910 babd d40d fb3c e943 553e
00000050: f613 90bd 6cc9 3f3e 89f2 6e3e 50cf cfbd
00000060: 7652 623e a05a 8b3d 2051 4ebd 85ba 13be
00000070: 6f1d 9a3e a065 8d3e 5e6f 88be 6846 023d
00000080: 567f 2bbe 2367 7b3e 3dff f43d 8248 e8bd
00000090: df69 38be 38af 2f3d d555 4e3e 34ae 5b3e
000000a0: 50c8 7cbe 5225 5bbe 0bbb cc3c c6db a43e
000000b0: 1c1c f53d 3e66 783c 5e0c 03bd 2e41 523e
000000c0: 038d 8e3e e1bd 1cbe f022 4a3b c6b0 42bd
000000d0: e5c8 30bd 2d94 e73d f135 20be 9e7d 4d3d
000000e0: 136e 17be fd32 22be fdaa cebd 0a39 0ebe
000000f0: dab2 023d 164e 20be d6ef 9a3d 4674 36be
00000100: 83fb 16be 7064 f2bd bd29 de3d 918b 483e
00000110: c95b e03d e945 ca3d efde 883c fa16 193e
00000120: 2f76 2a3e 8df0 663e ad7b cebc 395e a13d
00000130: acfa 3cbe 077a 9ebd 5ea8 fc3d 59c5 313e
00000140: 9cdd 06bd 6879 2abe b32f 113d 93ac d83d
00000150: 81d5 7c3e 6f8b 0dbe a8e2 f53d b5ea a5bd
00000160: dd59 723e 3676 63bd a191 03be 3eb5 263d
00000170: 2acc fc3c 1508 3d3e 0913 09be fae2 a9bd
00000180: f6e7 51be 9457 183e e83c 4b3e 11cc 08be
00000190: 1b0b 62bd 60d8 803d 43eb f7bd 8410 033e
000001a0: e7ba 1f3c 2d87 363d 3f0c 293e 698f 48be
000001b0: 0b17 0fbd f560 b03d 0ab6 393e c345 e23d
000001c0: 2965 133e 73fd 10bd 4130 243e 814d c9bb
000001d0: b8d7 8e3c 1dd7 263e 7b58 a13e 05e5 8e3e
000001e0: 76a9 563b 597e dc3d 4745 01be dd82 52bd
000001f0: bf1c bc3d b081 96bd 2da5 40be 109f 3d3d
00000200: c305 09be e3e4 b63d c9bf edbd 8e29 5abe
00000210: c5c1 283e 842b a03c adf5 7a3e c67f 51be
00000220: 9860 e03d a364 8c3e ec92 dc3b 9709 103d
00000230: 0a8a 85bd 77b2 8a3d 98d0 c13d 048c 883e
00000240: 7fd7 053e 1109 2b3e 4ff4 ec3d 4255 373e
00000250: 602b 603e 56f6 0abd 79fc 58bd 3a31 30bd
00000260: 2fdf 383e 8579 5c3e 62ef 783e ecee 2b3e
00000270: 5567 983d 0c7d be3e 07d2 173e d803 e03d
00000280: cbf7 9e3e f111 5b3e 9e16 b43e 324f 933e
00000290: 0624 633e 0676 f53d eedf a03c 54f9 203e
000002a0: 3d7b 01be aab4 49be 20a9 3d3e 594d 4f3c
000002b0: ebc8 fc3d e31b 2fbe 3a3b 1ebe 6ace d43d
000002c0: 6c2c 753e 62b3 893e b151 6b3e 1806 0fbe
000002d0: 6da3 12be 25bf 17be b3a6 d2bd 6cc2 253e
000002e0: db3a 633c 4bc1 9fbb d8b2 123e 955b 6f3e
000002f0: 265c 883e 5a6e 623d 1420 f0bd 264f 0cbb
00000300: 0edf 25be 8aee 733e 7368 4e3e 36b8 89bd
00000310: b894 04be 00f8 4dbe 7e72 3ebe 3d18 55ba
00000320: 0516 34be 25c4 b0bd 0723 fdbd 9f24 4a3e
00000330: f871 713e 62c5 3e3e 7ed5 15bd 85f3 233e
00000340: 2d67 243e 9eb2 e3bd 88f0 bcbd 16d5 0b3e
00000350: e99e 413e 7bce d2bd 3eb0 4c3e 4f9b 13be
00000360: c395 d2bd aee5 c4bd d8c3 cd3d 08df 683d
00000370: eb75 ba3d ed22 463c db35 34be 1fd7 15be
00000380: 40e4 afbd 76b5 e73d b151 ecbd 27df d4bd
00000390: 32e6 4b3e cfc0 44be cb9d 723d 9ac2 193e
000003a0: 4590 093e 537b 2b3d 2083 ed3c b4b9 09be
000003b0: 11a8 053e da47 7c3e 06c8 7f3e 64a0 a43e
000003c0: 5d3e 1d3e 4e4f eebd 3cbc 8a3e 26eb 253e
000003d0: 7cb8 8f3e c2a1 0d3e 5233 8bbd b77a 523b
000003e0: b89f 7a3d 3b14 593e
-0.0033181743 -0.038266994 -0.06342803 0.25340834 0.047956053 0.012872011 -0.048835624 -0.019549973
0.25523946 0.19861045 0.16067962 -0.11229926 0.18406339 0.26124027 -0.041394092 -0.10854338
0.14813663 -0.09085161 0.030646242 0.20826687 -0.07035057 0.1872918 0.23334707 -0.101469636
0.22101769 0.06804395 -0.050370336 -0.1442662 0.3010058 0.27616596 -0.26647466 0.031805426
-0.16747794 0.24551062 0.11962745 -0.11341955 -0.18009137 0.04289171 0.2014993 0.21453172
-0.24685788 -0.21400955 0.024991533 0.32198924 0.11968252 0.015161095 -0.031994216 0.20532677
0.27841958 -0.15306808 0.0030843578 -0.047531866 -0.043160338 0.11307559 -0.15645577 0.050168626
-0.14788084 -0.15839763 -0.10091207 -0.13888946 0.031908847 -0.15654787 0.07565276 -0.17817792
-0.14744382 -0.11835563 0.10847805 0.1958449 0.10955007 0.098766156 0.016707866 0.14950171
0.16646646 0.225527 -0.025205458 0.078793 -0.18454999 -0.077381186 0.12336801 0.17360438
-0.032926187 -0.16647875 0.03544588 0.10579791 0.2469082 -0.13822721 0.12006122 -0.081014074
0.23667093 -0.055532657 -0.12848522 0.04070019 0.030859072 0.18460114 -0.13386168 -0.082952455
-0.20498642 0.14877158 0.19847453 -0.13359095 -0.055186372 0.0629127 -0.121054195 0.12799269
0.009749151 0.044562507 0.16508578 -0.19585957 -0.034934085 0.08612243 0.18135849 0.11048462
0.14394058 -0.035397958 0.16034032 -0.0061432724 0.017436847 0.16292997 0.31512818 0.27909103
0.0032754815 0.107662864 -0.12624083 -0.051394332 0.091851704 -0.07348955 -0.1881301 0.046294272
-0.13381104 0.089303754 -0.11608846 -0.21304914 0.16480167 0.019552 0.2450778 -0.20458898
0.10955924 0.2742053 0.0067313816 0.035165396 -0.065204695 0.06772321 0.09463614 0.26669323
0.13070486 0.16702677 0.11570036 0.17903617 0.21891546 -0.03392633 -0.05297515 -0.043015696
0.18053888 0.21530731 0.24310067 0.1679036 0.07441584 0.37204778 0.14826213 0.10938233
0.31048426 0.21393563 0.35173506 0.2877136 0.2218171 0.11985402 0.019638028 0.15720111
-0.12644668 -0.19697824 0.18521547 0.012652718 0.123430096 -0.17100482 -0.1545228 0.10390933
0.23942727 0.2689467 0.22980382 -0.13967168 -0.14320154 -0.1481901 -0.102857016 0.16187447
0.013869013 -0.0048753372 0.14326036 0.2337478 0.26632804 0.05528102 -0.117248684 -0.002140948
-0.1619837 0.23821464 0.20157032 -0.067245886 -0.12947357 -0.20114136 -0.18598363 -0.0008128917
-0.17586525 -0.086311616 -0.123601966 0.19740532 0.23578632 0.18629983 -0.036580555 0.16010864
0.16054983 -0.11118053 -0.09225565 0.13655505 0.18908276 -0.10293289 0.19989106 -0.14414714
-0.10282471 -0.096141204 0.1004712 0.056853324 0.09104522 0.012093288 -0.17598669 -0.14632843
-0.08588457 0.11313908 -0.11539019 -0.103941254 0.19912031 -0.19214176 0.059232514 0.15015641
0.1343394 0.041865658 0.02899319 -0.13449746 0.13052393 0.24636784 0.24978647 0.32153618
0.15355821 -0.1163622 0.27096736 0.16202983 0.28070438 0.13831237 -0.06796898 0.00321166
0.061187476 0.21199124

conv1.bias f4 [10]
00000000: 5591 14bd 9e0d 2cbe f971 9b3d 8786 d63d
00000010: 13bc 59bd 27dd 343e 8633 edbd 0d48 0a3e
00000020: cd03 dd3d 1c2c 2f3e
-0.036271412 -0.1680207 0.07590098 0.10474878 -0.053157877 0.17662488 -0.11582093 0.13504048
0.107917406 0.1710667

conv2.weight f4 [20, 10, 5, 5]
00000000: dd43 fe3b 5e3f b23d ab9d 853c a089 b73c
00000010: 2e41 403d b4c4 763d 4de6 603d 8d99 413d
00000020: 94e9 203d bb1e 153b e2ec c53b ca4d 51bc
00000030: 08e9 b7bc b86b e1bc 400a 68bd f815 9abd
00000040: cc8b 8a3c aa56 863c 9fd9 16bd 63fb 77bd
00000050: 4b87 443d 0d99 5e3d 86fb 7e3d 67b6 c8b8
00000060: 1e59 c43c d10a 823d 9dac 83bc 305a 8bbc
00000070: 1396 babc 189d 2b3d 1985 843d db26 733d
00000080: fc15 1dbd 70f7 b6bc 02c1 63bd 5332 10bd
00000090: 50f0 b0bc 0b62 92bb 7110 3ebd 5ce0 063d
000000a0: 51bb a63b 3efd bcbc 6ea2 5dbc 9e3b 40bc
000000b0: 49bf 98bb 5dd1 f2bc 9caa 4f3d bc93 b9bb
000000c0: ca2d 6c3d d236 45bd 3130 31bb 8867 c3bc
000000d0: ad99 b0ba 065b 46bd 2d78 15bd e787 71bd
000000e0: 0d4b 3dbd 3e7c f73c 4bf5 4dbd 0c1e 3b3d
000000f0: 94de a2bc 7950 30bd e858 7cbc 2cea 213d
00000100: 29cf 85bd 891b aebc 0c4d 44bd 4546 343d
00000110: 99a2 cbbc 44da b63b cb76 223d 55d5 ec3c
00000120: f32d 84bc cedf 0e3c 4722 383d 24cc c63c
00000130: 1db5 fdbc 059b 5f3a b17b 7b3d 2a30 ffbc
00000140: 48b5 43bc 6045 5abd 28dc 84bd d455 1a3c
00000150: 2782 2cbc fd81 853d 5955 0d3d d4d0 92bc
00000160: 849f afbc bcc4 00bd 7f70 233d 334f 823c
00000170: 418f fcbb 37ef 52bd e272 92bd 09ac 59bd
00000180: 375e 2b3c 4060 f43b d0dc 8b3b 07d1 113d
00000190: 50c3 a23d 0551 3f3d 9099 9a3c 7291 66bd
000001a0: 6e76 2c3b ce42 a93c c00d 1bbd 37b6 e2ba
000001b0: 401c 723d d793 1d3d b207 5fba 6b6a 473c
000001c0: 1764 233c 0d88 11bc 8cbf ca3b be59 78bc
000001d0: 6829 b6bd ef9f 9dbd 3e01 7eb9 9a52 b4bc
000001e0: 7462 323d 5a73 123c 0543 57bd 2952 d13b
000001f0: 6fda c83a 3fb6 8bbb 201f cf3b f1a3 c9bc
00000200: 13ff 403d 6246 043d f260 1fbd 9312 3f3d
00000210: b31b b1bb 8612 1dbd ac54 723c 7c94 e5bc
00000220: 344b e83a 9b94 cbbc b74a 143d 3aa7 973c
00000230: 6596 aabd 9f1d 3fbc 0465 b73c 2432 59bd
00000240: d935 83bb fb74 103d e043 1a3c e11a 673d
00000250: 38ee c63b a654 3bbd 2640 cd3d bdd9 c63d
00000260: 0b92 0b3e 57df c83d 32d7 be3d 345b 543d
00000270: 3848 323d e78c 153d 11e2 02bd 6f49 28bc
00000280: 0f97 693d 6902 603c 8714 59bb 87e9 64bc
00000290: fcca f8bc b17d 29bd 5fa3 79bd 2351 f6bb
000002a0: ebd6 03bc ed0d 423d 00b4 7ebd 742e a1bd
000002b0: 58f2 f5bb d923 f7bc 768a 8cbd e5da fc3b
000002c0: 4348 3cbd c8c0 79bd 6482 193d 47b4 5b3c
000002d0: 6c92 793d 5b9f 613d 8ce1 313d 1d52 413d
000002e0: c30e 263d 479e 7a3d 4831 e6bb 0240 0d3a
000002f0: 0986 793d 351d e93c 9f25 87bd 6332 65bc
00000300: 5ea1 3abd 0b27 e03b 0c32 4d3d c06a b4bc
00000310: 69db 2bbd 07d0 f13c f46c 2a3d ebe9 4d3c
00000320: 160e 77bc 9c9f a13c 206e 4abd 82b1 3b3d
00000330: a61c 633c 27dd a73c 6053 79bd ee8a b63c
00000340: 9951 83bd 818e 7e3c 1516 a63a 2df9 27bd
00000350: 4e0b 78bd e96c cdbc 2306 aebc 5770 163d
00000360: a863 a9ba feb3 373d 1abd c03c ac9c 193c
00000370: 6fff b1bd f44c 66bd 85f8 1cbd 3fb2 80bd
00000380: 4748 54bd a4d7 ba3d 820c f23b 4c0f 1fbc
00000390: f241 86bc d29c 713d 8300 cb3c 19bd 623d
000003a0: 3427 8abd 7766 f63c e0f0 71bd 10df f73b
000003b0: 248f 173d acc5 403d 39fe ad3c e790 5ebc
000003c0: 9533 fabc 3365 6b3c 8b8b a2bd f716 66bd
000003d0: ead8 92bd 53c4 513d 972d 073b 727a 63bd
000003e0: 70c9 11bd 15f7 8bbd 40dc 5ebd 2a17 a93c
000003f0: 71b7 02bd 9015 8f3d 84ff 333d d42e 36bd
0.007759555 0.087034926 0.016310534 0.022404492 0.04693716 0.060246184 0.054907132 0.047265578
0.039285257 0.0022753912 0.0060402015 -0.012774894 -0.022449985 -0.027517185 -0.0566504 -0.075237215
0.016912363 0.016398747 -0.036828633 -0.060542475 0.047980588 0.05434518 0.06225159 -9.570718e-05
0.023968276 0.06349719 -0.01607352 -0.017010778 -0.02277664 0.041897863 0.06470699 0.059363227
-0.038351044 -0.022334784 -0.05560399 -0.035204243 -0.021598965 -0.004467254 -0.0464024 0.03292881
0.005088248 -0.023069974 -0.013527496 -0.011732964 -0.004661475 -0.029640848 0.050699815 -0.0056633633
0.057660855 -0.048147984 -0.002703678 -0.023853078 -0.0013473533 -0.04842665 -0.03649156 -0.058967497
-0.046214152 0.03021061 -0.050282758 0.04568295 -0.019881524 -0.043045495 -0.015402056 0.039529964
-0.06533653 -0.021253364 -0.04792504 0.044012327 -0.024857806 0.0055802185 0.03966407 0.028910318
-0.016135192 0.008720351 0.044954564 0.024267264 -0.03097015 0.00085298746 0.06139726 -0.031150896
-0.011945076 -0.053288817 -0.06487304 0.009419877 -0.010529078 0.06518934 0.034505222 -0.017921843
-0.021438368 -0.03143762 0.039902207 0.015906906 -0.007707507 -0.051497664 -0.071508184 -0.05314258
0.010459474 0.007457763 0.0042682663 0.035599735 0.07947409 0.046708126 0.018872052 -0.05629105
0.0026315707 0.020661738 -0.03785491 -0.0017296736 0.059108973 0.03847107 -0.00085079216 0.012171368
0.009972594 -0.008882535 0.006187385 -0.015158115 -0.08894616 -0.076965205 -0.0002422379 -0.022012044
0.043550923 0.008938635 -0.05255415 0.006387968 0.0015323887 -0.004263669 0.006320849 -0.024614306
0.047118258 0.032293685 -0.038910814 0.046648573 -0.0054049133 -0.038347743 0.014790695 -0.028024904
0.0017722608 -0.024851134 0.036204066 0.018512357 -0.08329467 -0.011664777 0.022387035 -0.053026333
-0.004004222 0.03526781 0.009415597 0.056422118 0.0060708784 -0.045735024 0.10022001 0.09709499
0.1362993 0.09808224 0.09318389 0.05184479 0.043525904 0.036511328 -0.031953875 -0.010271414
0.057028826 0.01367245 -0.0033123808 -0.013971693 -0.030370228 -0.041379634 -0.06094682 -0.0075169965
-0.008046846 0.047376562 -0.06218338 -0.07870188 -0.0075056963 -0.03016846 -0.06862347 0.007716524
-0.04596735 -0.060974866 0.037477866 0.013409681 0.060930654 0.055083614 0.04342799 0.04719745
0.04054142 0.0611861 -0.0070249178 0.0005388261 0.06091884 0.02845631 -0.065989725 -0.013989064
-0.045564048 0.006840592 0.050096557 -0.022023559 -0.041957293 0.02951814 0.041607812 0.012567977
-0.015079042 0.019729428 -0.04942143 0.04582358 0.013861811 0.020491196 -0.06087053 0.022283044
-0.06412048 0.015536905 0.0012671376 -0.041009117 -0.060557656 -0.025076346 -0.02124316 0.03672823
-0.0012923377 0.04484939 0.02352767 0.009375732 -0.08691298 -0.056225732 -0.038322944 -0.06283998
-0.05182674 0.091231614 0.007386745 -0.009708237 -0.016388867 0.058987446 0.024780517 0.05535612
-0.06745759 0.030078156 -0.059067607 0.007564433 0.037001744 0.047063515 0.021239387 -0.013584352
-0.030542174 0.0143673895 -0.07936772 -0.056174245 -0.07170279 0.05121262 0.002062654 -0.055536695
-0.035592496 -0.068342365 -0.054409266 0.020640928 -0.031913225 0.069865346 0.04394485 -0.044478253

conv2.bias f4 [20]
00000000: c0f2 663d 046e d2bc 2143 b2ba 37b7 7a3c
00000010: 08c9 873c 622f 7dbd 82ed 8dbd bff6 d9bc
00000020: 9213 9bbc 8bfa 1d3d f2cf 523c ec26 443d
00000030: 73f9 15bc 626f 1a3d 6de2 11bd 562c 7dbd
00000040: d30f 2abc ebf0 1abd 3e8a 473d b659 fdbb
0.05638385 -0.025687225 -0.0013600328 0.015302471 0.016575351 -0.061812766 -0.06930067 -0.026606916
-0.01893023 0.038569015 0.012866961 0.04788868 -0.009153712 0.03770388 -0.035616327 -0.06180986
-0.010379749 -0.037827414 0.048715822 -0.0077316416

fc1.weight f4 [50, 320]
00000000: 193d 063d b47a a6bc f38e 853c a8f2 23bd
00000010: 1c9f 4f3d 57aa 813d 9b3a 223d fbee 0a3d
00000020: c3d6 7d3b 0a70 f03c 1148 07bd 2849 46bd
00000030: 9c9f c8bc 5bb7 85ba 98d8 2a3b e541 3abd
00000040: 84f4 c3bb b302 643c ec26 953c 7b1d 333d
00000050: a5cf 593d b0c4 8e3c 9b60 48bc c699 0bbd
00000060: b6ec e83c 4eb3 cf3a 3b15 593d 580a 113d
00000070: 696f 2e3c 4205 55bd d67c 1bbd 039f 543c
00000080: a6ea 633d dfab 053d f193 d0bc 3022 023d
00000090: 1964 19bd 4657 31bd 12eb 3fbd 5390 e4bc
000000a0: 77f1 11bd 8849 e93c 2e8e 943d 80d7 853d
000000b0: f510 c1bc 8b4d 9c3c 97e4 e4bc b59d 52bb
000000c0: f61c 09bd 7e12 29bb dc01 6bbc 05f3 283c
000000d0: 6de2 b23c 3e0f 473d 7044 943d facd 993d
000000e0: 039a 433d fca7 a2bd 53cd a4bd 7cc7 583d
000000f0: 2722 80bc 1383 07bd 0ae8 7abd 896d 97bc
00000100: 055a a5bc 0428 b43a a739 bfba 36b3 433d
00000110: dec8 a0ba 2057 193c 264c 37bd 9a42 9fbc
00000120: 6270 673d b61e 03bd 87e6 1dbd 07f9 85bc
00000130: c71d 163d 263d d4bc a622 dbbc e312 4e3b
00000140: b786 4ebc 7d5c 793c 5a02 3d3b 3bdb 093d
00000150: 6464 c33c b480 ff3b 318b 473d b194 2c3c
00000160: 95cc 68bd fa29 45bd 9b78 71bd f685 c1bc
00000170: 18a2 5ebd 4531 163d 29c1 a83c 0ce0 61bc
00000180: 8e88 b33c ece3 86bd 1799 ebbb 5448 053b
00000190: 336f 0fbd 4e5c 15bd 930e 343d b017 983d
000001a0: 7e51 fdbb e8fb efbc 93e8 6dbd 3147 093d
000001b0: ed99 0f3c deb1 51ba d6b6 12bd d9fb fe3c
000001c0: 3863 fa3a 3e69 24bd 3577 3b3c f137 c6bc
000001d0: 8cef d4bc 3107 5c3d 5758 56bc 8e5e 80bd
000001e0: 3c03 c73c 50fe 593a b409 35bc 5237 eab9
000001f0: 7029 073d 6a80 4c3d c921 0f3d fbe4 69bd
00000200: 3c9f 813d 1c92 78bc 7e8d 163d f322 c6bc
00000210: 7981 19bd b4b8 0fbc d59b c0bc 928c 003d
00000220: fd9e 3b3d d85f 5b3d 3237 04bd 3e59 28bc
00000230: 1d7e 8cbc cb58 483d 3ea4 df3c 5f0c 3e3d
00000240: 054f 3a3d fab4 27ba d2a4 8ebc 4867 4fbc
00000250: e6b0 6b3b 6239 df3c 7192 85bd 2bf7 fe3c
00000260: 8ab2 45bd 7abb 303d f95b 4d3d 6917 073d
00000270: b1f7 4ebb c301 a63c b9d0 243d 70c0 9dbc
00000280: b72a 8abc df9e c83c ad8c 513b f630 be3d
00000290: 92ea 36bb d704 1fbd 74bc 44bc 7fcd 1bbd
000002a0: d3f1 f8bc f2be 07bd ad02 7aba 469c 5dbd
000002b0: a188 2cbd 1465 023d 741a e7bc db3e 4cbd
000002c0: ae86 663d 6b50 453c de10 803c 0bc9 5e3d
000002d0: 9a91 83bc 724d 49bd 8074 3bbc efdf 8bbd
000002e0: d88e 3b3d 3191 18bd 0bab 0cbd 1edc af3c
000002f0: 3174 df3c 5321 00bd c66a e83c 8cfc 21bc
00000300: f5c7 c03b f5c2 293d b2af 00bc d34b 7b3b
00000310: 01fa 6f3d 4e8e 3a3c ab63 053c ee3e 42bd
00000320: b56f 193d 425b a8bc d78d f03c 38cc 47bd
00000330: 5bfa 07bd a755 50bd 4362 a03c cd83 263d
00000340: 4c4e 053d a9dc 60bd ead5 633d 6b8d f7bb
00000350: 88e2 fc3b ff4e e8bc fe18 5c3d 2418 473c
00000360: 22b8 133d 76df 55bd 8057 84bc b28b 343d
00000370: 7df1 5d3c 73a4 f0bc e0a6 4cbd eae8 2cbc
00000380: 8b99 ccbc 0e37 c0bc 71b8 95bc 6769 1e3d
00000390: 0cda 773c 945b b23c 45b0 3f3c 2d40 efbc
000003a0: 4ee0 7e3d 95a8 153c c461 c23c c0ab d3bc
000003b0: 6ef7 95bb e5fd da3b 70d6 44bd be58 233d
000003c0: 32a0 023d 3133 a73c f24d ddbc 9bde 5c3c
000003d0: 8671 f43c 8adf f43c f134 043d be2d 63bc
000003e0: 1fe0 253b cbbb 05bc 7daa f13c 7234 1a3d
000003f0: acb0 603d 8907 edbb 6ffb 02bd 1528 8f3b
0.03277311 -0.020322181 0.016303515 -0.040026337 0.050688848 0.06331318 0.03960667 0.033919316
0.0038732744 0.0293503 -0.033027712 -0.04840961 -0.02449017 -0.0010201739 0.0026069041 -0.045473
-0.0059800763 0.013916659 0.018207036 0.043729287 0.05317654 0.017427772 -0.012230064 -0.034082197
0.028433185 0.0015846284 0.052998763 0.035410255 0.010646679 -0.052006967 -0.03796085 0.0129773645
0.0556437 0.032634612 -0.025461169 0.031770885 -0.037448976 -0.04329612 -0.04685504 -0.02790085
-0.03563067 0.028477445 0.07253681 0.06535244 -0.023567656 0.019079944 -0.027941031 -0.0032137458
-0.033474885 -0.0025798376 -0.014343705 0.010311847 0.021836484 0.04859852 0.07239616 0.0750999
0.0477543 -0.07942197 -0.08046975 0.052924618 -0.015641285 -0.033083986 -0.061256446 -0.018484848
-0.020184526 0.0013744836 -0.0014589325 0.04777833 -0.0012266894 0.009359151 -0.044750355 -0.019440938
0.05650366 -0.03201171 -0.038549926 -0.016354097 0.03664949 -0.025908064 -0.02674992 0.0031444363
-0.012605361 0.015219805 0.0028840513 0.03365634 0.02385158 0.007797325 0.048716728 0.010533498
-0.05683573 -0.048135735 -0.05895291 -0.023623448 -0.054353803 0.03666808 0.020599918 -0.013786327
0.0219157 -0.065864414 -0.0071898806 0.00203373 -0.035018157 -0.03646498 0.04395921 0.07426393
-0.007730662 -0.029294923 -0.05808313 0.03351516 0.008764726 -0.00079992216 -0.035818897 0.03112595
0.0019103056 -0.04013943 0.011441995 -0.024196597 -0.025993131 0.053717796 -0.013082585 -0.06268035
0.024293534 0.00083157886 -0.011049677 -0.00044673175 0.032998502 0.049927153 0.03494433 -0.05710314
0.063292 -0.015171554 0.03675603 -0.024186587 -0.03747699 -0.008772064 -0.023511807 0.03138406
0.04580592 0.0535582 -0.0322792 -0.010275183 -0.01714998 0.048912805 0.027299996 0.046398517
0.045485515 -0.0006397512 -0.017412577 -0.0126589015 0.0035963594 0.027249042 -0.06522072 0.031123718
-0.04826597 0.04314754 0.05013654 0.03298131 -0.003158074 0.020264512 0.040238116 -0.0192568
-0.016866071 0.024489818 0.0031974718 0.09286682 -0.002791081 -0.038822975 -0.012007821 -0.038037773
-0.030388748 -0.033141084 -0.0009537142 -0.054104112 -0.042122487 0.031834677 -0.028210856 -0.04986463
0.056280784 0.012043099 0.015633043 0.05439095 -0.01606064 -0.049146123 -0.01144135 -0.06829821
0.045790523 -0.03724784 -0.034342807 0.021467265 0.027277084 -0.03128178 0.028371226 -0.009886872
0.0058832117 0.04144569 -0.007854389 0.0038344755 0.05858803 0.011386467 0.0081414385 -0.047423296
0.037460048 -0.020551328 0.02936451 -0.048778743 -0.033197742 -0.050862934 0.019578105 0.04065304
0.032545373 -0.054897938 0.055623926 -0.0075547 0.0077174343 -0.02835798 0.053734772 0.012151752
0.036064275 -0.052215062 -0.016155005 0.044078536 0.013546345 -0.02937529 -0.049963832 -0.010553578
-0.024975559 -0.023463752 -0.018276425 0.03867474 0.01512767 0.021772183 0.011699741 -0.029205406
0.062225632 0.009134431 0.023728259 -0.025838733 -0.004576615 0.0066830986 -0.048056066 0.039879553
0.031891055 0.020410152 -0.027014706 0.013480808 0.029839288 0.029891748 0.03227705 -0.013865886
0.0025310589 -0.008162449 0.02950024 0.037647672 0.054855987 -0.0072335643 -0.031978067 0.004368792

fc1.bias f4 [50]
00000000: 249b 8db9 9db0 27bc 84d9 c0bc c92a c0bc
00000010: c7a5 923b 0fe5 6f3d 1ea0 443d 577a dcbc
00000020: f96d 0dbd 88cb 9ebc 6d97 5ebb 19fd 803d
00000030: dd40 d7bc e8f8 d93c f5c9 5fbc 3d19 57bc
00000040: e47c ec3c fc78 8c3c 1c1c 293d e219 fe39
00000050: ae60 3cbd 0d9f 4a3d fa00 aabc c0e7 45bd
00000060: 5a04 7e3c 212d 3e3d e585 883d b01a 7abc
00000070: 676b 2e3d 467e 92bc 76ec 2b3d 2798 56bd
00000080: 26b5 363d 5637 1d3c 4fa9 da3c a474 37bd
00000090: f6d9 88bc d8cf 643d 6c05 02bd e277 973a
000000a0: 5e85 053d a835 a33c 4e71 303d 3669 453d
000000b0: 5695 643c cd6e e33c f02d a1bb 4685 e8bc
000000c0: 129a 37bd c8d7 a83c
-0.00027009204 -0.010234979 -0.02354122 -0.023457902 0.0044753286 0.058568057 0.048004262 -0.026913805
-0.034528706 -0.01938416 -0.0033964769 0.062982745 -0.026276046 0.026607946 -0.01365899 -0.013128576
0.028868146 0.017147534 0.041286573 0.0004846594 -0.04599064 0.04946809 -0.020752419 -0.048316717
0.015503967 0.046429757 0.06666163 -0.015265152 0.042582896 -0.017882477 0.041973554 -0.052391198
0.04460635 0.009595713 0.02669206 -0.04478897 -0.016705494 0.055862278 -0.031743452 0.0011556114
0.032597892 0.019923046 0.043076806 0.04819604 0.01395162 0.027762795 -0.0049188063 -0.028383862
-0.044824667 0.020610705

fc2.weight f4 [10, 50]
00000000: f469 1b3e 59a3 013e 2c7d acbd d748 51bd
00000010: d5fc 68be 20ff d63d 2a34 a7bd d575 9c3d
00000020: d269 213e 36e1 b23d 3d32 b83d 144e 44be
00000030: 1cd4 9c3d 7fae 2bbe f9ed f4bc e306 22be
00000040: 9d6a 943c 2474 c13d 7e10 61be 3283 d0bd
00000050: 4578 9a3c aba4 d0bd 069b f6bd 96f1 a2bc
00000060: 52c4 30be a525 3b3e 8d59 543e 419b 17bc
00000070: 0ad5 73be 6896 d93d 91e5 8dbd d3a1 243c
00000080: b213 adbc afee 4f3e 757c 30be b892 343e
00000090: a19a c7bd 8858 d2bd 5217 f63d 0cc4 9ebd
000000a0: c762 93bd 6749 03bd 13d8 a2bd a8d0 7a3d
000000b0: 8c90 4f3d a8b2 043d b550 893d b988 39be
000000c0: 7a55 dc3d 54ff 3b3e 5ea9 3c3d fb3e 5bbe
000000d0: 96e0 bd3d 9520 1bbb ff05 aabd 5a97 0fbe
000000e0: 0be0 f53d 8543 45bd 1ead 4fbe 9be5 ce3d
000000f0: f4f6 9dbd d555 bd3d da61 8e3d 3035 04be
00000100: f49d 083e 22be 07be 72bb f5bd 9e88 30be
00000110: a7a0 e8bd 65cb e4bd f974 c93d fc3e 123e
00000120: 943a 0f3e c900 2c3d 0868 293e 4471 23be
00000130: 2f81 9ebd 694f 0d3e 5820 d23d f57e 9abd
00000140: d60e a2bd 5c19 03be 140f 1b3e 39da c43d
00000150: cb7d 2c3e dbea f0bd 3cbf 86bd 2e2e 1dbe
00000160: ddb6 36be 4b22 08bd 74f1 a2bd 662f 13be
00000170: 3a9d c63b 4fb0 bbbd ed31 723e efb8 2a3d
00000180: 2061 443e 2447 523d 15a4 b2bd ec27 51be
00000190: beb6 07bd d6f5 d03c 3b69 5c3d 7e4d bd3c
000001a0: e6f1 6ebd 09bc f73d 89b7 8d3c 6b76 583c
000001b0: 7e65 cbbd 6caa a4bb 41fe e4bd 9866 2dbe
000001c0: 2ea3 d63d 8f0c 31be c928 d73d 78a1 1dbe
000001d0: 090c 99bc fab4 933a fbc7 c13d a13c b83d
000001e0: 7bcb f8bd 9236 d2bd 461d 64bd cf6f e13d
000001f0: 27a2 5ebc 7edf 84bd 1cb5 2f3d a667 1c3e
00000200: 7b73 a7bc 277d 0cbe 64f3 013e 6434 03bc
00000210: 76c5 1b3e 2c41 6d3e 4362 7b3c 3a5b 9ebd
00000220: ead7 cd3d e39e a3bc 8a30 223e d3f6 683d
00000230: 2edf 943d 95e1 c83d 6c93 833d f7f5 0b3e
00000240: 6200 f7bd f2d8 10be 147a 96bd 7272 c83d
00000250: 1b13 fabd bb20 dabd 6166 edbd ca2c 4c3d
00000260: 349a 4cbe 161e d03d 9a44 54bd 8e9a 03be
00000270: c9cd c63c 25f3 eabc 7d46 14bd 63b7 c03d
00000280: b5ca ddbd 1f15 72bd 8d9d 2fbd a38c a8bd
00000290: e943 5dbb 8837 853d 0264 c3bd d01f 47be
000002a0: dfb2 b73d 1446 5a3d 3753 f2bd da09 08be
000002b0: 5bff 263e 608d e1bd 188b 093e f046 be3d
000002c0: cb3d 0d3e 702d 113e 5c03 173d 781a 8f3d
000002d0: 194e 173e 1ad0 ba3d 257a 0dbe 6bf4 003e
000002e0: 0a29 09be 1c08 3ebd d563 a4bc 4b04 e43c
000002f0: a619 a53d eefd d83d b2bc dbbd 0c8f 113e
00000300: 6bda dc3d 8e37 2fbe 1a6d 04be 673f aabc
00000310: 4f71 3f3e 0731 ac3d 0b77 093e 6aec 513d
00000320: ea57 f4bd 87b9 4cbe 1042 2e3e 92c2 8cbd
00000330: 4608 1d3e 2b7a 85bb c27b b93c 7032 38bd
00000340: e2ad 5bbb c84e b23d 6c2a a33d c827 f63c
00000350: e568 883d 21d5 173e 685f eebc 0557 cfbd
00000360: daaf 673c 559a 043e 5289 ff3d d8f4 06be
00000370: e88a 343e becd 2f3e 62ea 02be c2a0 2ebe
00000380: 8343 31bd e14c 05bd de73 92bc b5fa ecbc
00000390: bac0 f33c b571 e6b9 8b34 a53d 8dd5 2f3e
000003a0: f7b3 8fbd 7dd1 27bd 42ed c83d 2018 0abe
000003b0: 9471 43bc 786e 4bbd 6962 013e ffe2 8e3d
000003c0: 3337 1c3c deee 243d 9041 73bd f340 723d
000003d0: a438 6ebd 6935 653e a9e3 4abe 4849 41be
000003e0: b818 b7bd 1e08 10be 14fc ee3d fd7e c33d
000003f0: c8fa d0bd 003d 7a3c 1667 83bd 2584 c03d
0.15177137 0.12659968 -0.08422312 -0.051094856 -0.22752698 0.1049788 -0.081642464 0.07639662
0.15763023 0.08734362 0.08993957 -0.1917041 0.07657644 -0.16765784 -0.02989863 -0.1582294
0.018117243 0.0944598 -0.21978948 -0.101812735 0.018856177 -0.10187658 -0.12041287 -0.019890588
-0.1726239 0.18276079 0.20737286 -0.009253324 -0.23811737 0.10624391 -0.06928552 0.0100483475
-0.021127556 0.20305894 -0.17234977 0.17634094 -0.0974629 -0.10270792 0.12016167 -0.07752237
-0.07196575 -0.032052424 -0.07951369 0.061234146 0.05067496 0.032396942 0.06704847 -0.18118562
0.10758491 0.18359119 0.04605996 -0.21410744 0.09271352 -0.0023670543 -0.08301925 -0.1402258
0.120056234 -0.048160095 -0.20280883 0.101023875 -0.07713118 0.09244887 0.069522575 -0.12910914
0.13341504 -0.13256124 -0.11998643 -0.17239615 -0.11358767 -0.11171607 0.09836764 0.14281839
0.1398719 0.041992936 0.16543591 -0.15961176 -0.077394836 0.13799824 0.10260075 -0.075437464
-0.07912986 -0.12802643 0.1514247 0.09611935 0.16844861 -0.11763545 -0.06579444 -0.15349647
-0.17843194 -0.03323583 -0.0795621 -0.1437355 0.0060612233 -0.091644876 0.23651858 0.041680273
0.19177675 0.051337376 -0.087227024 -0.20425385 -0.03313326 0.025507849 0.053811293 0.02310824
-0.05833616 0.12096412 0.01729943 0.013211827 -0.099314675 -0.0050251987 -0.111813076 -0.16933668
0.10480343 -0.17289947 0.10505826 -0.15393627 -0.018682497 0.0011269145 0.09461971 0.08995939
-0.12148186 -0.10264315 -0.05569198 0.11007654 -0.013588465 -0.0648794 0.04289733 0.15273914
-0.020440808 -0.13719617 0.12690502 -0.008008096 0.15212044 0.23169392 0.015343252 -0.07732244
0.10050948 -0.019973224 0.15838829 0.056876015 0.07269131 0.09808651 0.06424603 0.13668047
-0.1206062 -0.14145258 -0.07347503 0.09787454 -0.12210675 -0.10650774 -0.11591793 0.0498474
-0.19980699 0.101619884 -0.051823236 -0.12851927 0.024268048 -0.028680393 -0.036200035 0.09409978
-0.10829679 -0.059102174 -0.04287486 -0.08229949 -0.0033762401 0.06504732 -0.09540559 -0.1944573
0.08969664 0.053289488 -0.11832278 -0.13285008 0.16308348 -0.11013293 0.13431966 0.09290874
0.13793103 0.1417749 0.036868438 0.069874704 0.14775886 0.091217235 -0.13816126 0.12593238
-0.13394561 -0.046394452 -0.020067135 0.027834078 0.08061533 0.10595308 -0.1072935 0.14214724
0.107838474 -0.17111036 -0.12932244 -0.020782186 0.18695568 0.08407789 0.13424318 0.051250853
-0.11930831 -0.19992648 0.17017388 -0.06873049 0.15335187 -0.0040734014 0.02264202 -0.044969976
-0.003352039 0.087064326 0.07967076 0.030048266 0.06660632 0.14827396 -0.029098228 -0.101240195
0.014141047 0.12949498 0.12477364 -0.13179338 0.17631114 0.17168328 -0.12784722 -0.17053512
-0.043277275 -0.03254402 -0.017877515 -0.02892814 0.029754985 -0.00043953737 0.080666624 0.17171307
-0.070167474 -0.040971268 0.09810878 -0.13485765 -0.011928935 -0.049665898 0.12635197 0.0697689
0.009534645 0.040266864 -0.059388697 0.05914397 -0.058159485 0.22383656 -0.19813408 -0.18875611
-0.089402616 -0.14065596 0.11669174 0.095457055 -0.10204083 0.015273333 -0.064161465 0.094002046

fc2.bias f4 [10]
00000000: 6493 95bc a4d2 543e 5ce1 92bc 5a6f 803b
00000010: 6fec fdbd 2241 f73d 4602 e6bd 9d8a 343c
00000020: f182 783d 8d75 183e
-0.018258758 0.20783478 -0.017929725 0.003919524 -0.12398612 0.1207297 -0.112309024 0.011019376
0.06067175 0.14888592
